nohup: ignoring input
----------------------------------------------------------------
        Layer (type)               Output Shape         Param #
================================================================
            Linear-1                   [-1, 64]           1,984
              ReLU-2                   [-1, 64]               0
            Linear-3                  [-1, 128]           8,320
              ReLU-4                  [-1, 128]               0
            Linear-5                  [-1, 256]          33,024
              ReLU-6                  [-1, 256]               0
            Linear-7                  [-1, 128]          32,896
              ReLU-8                  [-1, 128]               0
            Linear-9                   [-1, 64]           8,256
             ReLU-10                   [-1, 64]               0
           Linear-11                   [-1, 32]           2,080
           Linear-12                   [-1, 32]           2,080
================================================================
Total params: 88,640
Trainable params: 88,640
Non-trainable params: 0
----------------------------------------------------------------
Input size (MB): 0.00
Forward/backward pass size (MB): 0.01
Params size (MB): 0.34
Estimated Total Size (MB): 0.35
----------------------------------------------------------------
encoder: None
----------------------------------------------------------------
        Layer (type)               Output Shape         Param #
================================================================
            Linear-1                   [-1, 64]           2,112
              ReLU-2                   [-1, 64]               0
            Linear-3                  [-1, 128]           8,320
              ReLU-4                  [-1, 128]               0
            Linear-5                  [-1, 256]          33,024
              ReLU-6                  [-1, 256]               0
            Linear-7                  [-1, 128]          32,896
              ReLU-8                  [-1, 128]               0
            Linear-9                   [-1, 64]           8,256
             ReLU-10                   [-1, 64]               0
           Linear-11                   [-1, 30]           1,950
================================================================
Total params: 86,558
Trainable params: 86,558
Non-trainable params: 0
----------------------------------------------------------------
Input size (MB): 0.00
Forward/backward pass size (MB): 0.01
Params size (MB): 0.33
Estimated Total Size (MB): 0.34
----------------------------------------------------------------
decoder: None
epoch=0, loss=5.29e-02, min_loss=5.29e-02, kld=0.17, recon=5.29e-02, size_dis=0.455, mean_size=3708.56, max_size=108496.15(999), time=1.02
…
