nohup: ignoring input
----------------------------------------------------------------
        Layer (type)               Output Shape         Param #
================================================================
            Linear-1                   [-1, 28]             868
              ReLU-2                   [-1, 28]               0
            Linear-3                   [-1, 24]             696
              ReLU-4                   [-1, 24]               0
            Linear-5                   [-1, 20]             500
              ReLU-6                   [-1, 20]               0
            Linear-7                   [-1, 16]             336
            Linear-8                   [-1, 16]             336
================================================================
Total params: 2,736
Trainable params: 2,736
Non-trainable params: 0
----------------------------------------------------------------
Input size (MB): 0.00
Forward/backward pass size (MB): 0.00
Params size (MB): 0.01
Estimated Total Size (MB): 0.01
----------------------------------------------------------------
encoder: None
----------------------------------------------------------------
        Layer (type)               Output Shape         Param #
================================================================
            Linear-1                   [-1, 20]             340
              ReLU-2                   [-1, 20]               0
            Linear-3                   [-1, 24]             504
              ReLU-4                   [-1, 24]               0
            Linear-5                   [-1, 28]             700
              ReLU-6                   [-1, 28]               0
            Linear-7                   [-1, 30]             870
================================================================
Total params: 2,414
Trainable params: 2,414
Non-trainable params: 0
----------------------------------------------------------------
Input size (MB): 0.00
Forward/backward pass size (MB): 0.00
Params size (MB): 0.01
Estimated Total Size (MB): 0.01
----------------------------------------------------------------
decoder: None
epoch=100, loss=1.59e-02, min_loss=1.59e-02, kld=33.14, recon=1.51e-02, size_dis=0.093, mean_size=13.00, max_size=3112.04(461), time=2.89
…
